__________________________________________________________________________________________________
Layer (type)                    Output Shape         Param #     Connected to                     
==================================================================================================
input_1 (InputLayer)            (None, 56, 56, 64)   0                                            
__________________________________________________________________________________________________
batch_normalization (BatchNorma (None, 56, 56, 64)   256         input_1[0][0]                    
__________________________________________________________________________________________________
activation (Activation)         (None, 56, 56, 64)   0           batch_normalization[0][0]        
__________________________________________________________________________________________________
conv2d (Conv2D)                 (None, 56, 56, 128)  8320        activation[0][0]                 
__________________________________________________________________________________________________
batch_normalization_1 (BatchNor (None, 56, 56, 128)  512         conv2d[0][0]                     
__________________________________________________________________________________________________
activation_1 (Activation)       (None, 56, 56, 128)  0           batch_normalization_1[0][0]      
__________________________________________________________________________________________________
conv2d_1 (Conv2D)               (None, 56, 56, 32)   36896       activation_1[0][0]               
__________________________________________________________________________________________________
concatenate (Concatenate)       (None, 56, 56, 96)   0           input_1[0][0]                    
                                                                 conv2d_1[0][0]                   
__________________________________________________________________________________________________
batch_normalization_2 (BatchNor (None, 56, 56, 96)   384         concatenate[0][0]                
__________________________________________________________________________________________________
activation_2 (Activation)       (None, 56, 56, 96)   0           batch_normalization_2[0][0]      
__________________________________________________________________________________________________
conv2d_2 (Conv2D)               (None, 56, 56, 128)  12416       activation_2[0][0]               
__________________________________________________________________________________________________
batch_normalization_3 (BatchNor (None, 56, 56, 128)  512         conv2d_2[0][0]                   
__________________________________________________________________________________________________
activation_3 (Activation)       (None, 56, 56, 128)  0           batch_normalization_3[0][0]      
__________________________________________________________________________________________________
conv2d_3 (Conv2D)               (None, 56, 56, 32)   36896       activation_3[0][0]               
__________________________________________________________________________________________________
concatenate_1 (Concatenate)     (None, 56, 56, 128)  0           concatenate[0][0]                
                                                                 conv2d_3[0][0]                   
__________________________________________________________________________________________________
batch_normalization_4 (BatchNor (None, 56, 56, 128)  512         concatenate_1[0][0]              
__________________________________________________________________________________________________
activation_4 (Activation)       (None, 56, 56, 128)  0           batch_normalization_4[0][0]      
__________________________________________________________________________________________________
conv2d_4 (Conv2D)               (None, 56, 56, 128)  16512       activation_4[0][0]               
__________________________________________________________________________________________________
batch_normalization_5 (BatchNor (None, 56, 56, 128)  512         conv2d_4[0][0]                   
__________________________________________________________________________________________________
activation_5 (Activation)       (None, 56, 56, 128)  0           batch_normalization_5[0][0]      
__________________________________________________________________________________________________
conv2d_5 (Conv2D)               (None, 56, 56, 32)   36896       activation_5[0][0]               
__________________________________________________________________________________________________
concatenate_2 (Concatenate)     (None, 56, 56, 160)  0           concatenate_1[0][0]              
                                                                 conv2d_5[0][0]                   
__________________________________________________________________________________________________
batch_normalization_6 (BatchNor (None, 56, 56, 160)  640         concatenate_2[0][0]              
__________________________________________________________________________________________________
activation_6 (Activation)       (None, 56, 56, 160)  0           batch_normalization_6[0][0]      
__________________________________________________________________________________________________
conv2d_6 (Conv2D)               (None, 56, 56, 128)  20608       activation_6[0][0]               
__________________________________________________________________________________________________
batch_normalization_7 (BatchNor (None, 56, 56, 128)  512         conv2d_6[0][0]                   
__________________________________________________________________________________________________
activation_7 (Activation)       (None, 56, 56, 128)  0           batch_normalization_7[0][0]      
__________________________________________________________________________________________________
conv2d_7 (Conv2D)               (None, 56, 56, 32)   36896       activation_7[0][0]               
__________________________________________________________________________________________________
concatenate_3 (Concatenate)     (None, 56, 56, 192)  0           concatenate_2[0][0]              
                                                                 conv2d_7[0][0]                   
__________________________________________________________________________________________________
batch_normalization_8 (BatchNor (None, 56, 56, 192)  768         concatenate_3[0][0]              
__________________________________________________________________________________________________
activation_8 (Activation)       (None, 56, 56, 192)  0           batch_normalization_8[0][0]      
__________________________________________________________________________________________________
conv2d_8 (Conv2D)               (None, 56, 56, 128)  24704       activation_8[0][0]               
__________________________________________________________________________________________________
batch_normalization_9 (BatchNor (None, 56, 56, 128)  512         conv2d_8[0][0]                   
__________________________________________________________________________________________________
activation_9 (Activation)       (None, 56, 56, 128)  0           batch_normalization_9[0][0]      
__________________________________________________________________________________________________
conv2d_9 (Conv2D)               (None, 56, 56, 32)   36896       activation_9[0][0]               
__________________________________________________________________________________________________
concatenate_4 (Concatenate)     (None, 56, 56, 224)  0           concatenate_3[0][0]              
                                                                 conv2d_9[0][0]                   
__________________________________________________________________________________________________
batch_normalization_10 (BatchNo (None, 56, 56, 224)  896         concatenate_4[0][0]              
__________________________________________________________________________________________________
activation_10 (Activation)      (None, 56, 56, 224)  0           batch_normalization_10[0][0]     
__________________________________________________________________________________________________
conv2d_10 (Conv2D)              (None, 56, 56, 128)  28800       activation_10[0][0]              
__________________________________________________________________________________________________
batch_normalization_11 (BatchNo (None, 56, 56, 128)  512         conv2d_10[0][0]                  
__________________________________________________________________________________________________
activation_11 (Activation)      (None, 56, 56, 128)  0           batch_normalization_11[0][0]     
__________________________________________________________________________________________________
conv2d_11 (Conv2D)              (None, 56, 56, 32)   36896       activation_11[0][0]              
__________________________________________________________________________________________________
concatenate_5 (Concatenate)     (None, 56, 56, 256)  0           concatenate_4[0][0]              
                                                                 conv2d_11[0][0]                  
==================================================================================================
Total params: 339,264
Trainable params: 336,000
Non-trainable params: 3,264
__________________________________________________________________________________________________
…
